…
els import vgg16, VGG16_Weights\n","\n","vgg16_model = vgg16(weights=VGG16_Weights.IMAGENET1K_V1)\n","vgg16_model = vgg16_model.features[:16]\n","vgg16_model = vgg16_model.to(device)\n","print(vgg16_model)"],"metadata":{"colab":{"base_uri":"https://localhost:8080/"},"id":"XTkfBw10KoSK","executionInfo":{"status":"ok","timestamp":1669213539473,"user_tz":-60,"elapsed":1640,"user":{"displayName":"Kieran Carrigg","userId":"16594930700941695113"}},"outputId":"de7aa85a-43da-4895-8c2d-f01f6c691304"},"execution_count":null,"outputs":[{"output_type":"stream","name":"stdout","text":["Sequential(\n","  (0): Conv2d(3, 64, kernel_size=(3, 3), stride=(1, 1), padding=(1, 1))\n","  (1): ReLU(inplace=True)\n","  (2): Conv2d(64, 64, kernel_size=(3, 3), stride=(1, 1), padding=(1, 1))\n","  (3): ReLU(inplace=True)\n","  (4): MaxPool2d(kernel_size=2, stride=2, padding=0, dilation=1, ceil_mode=False)\n","  (5): Conv2d(64, 128, kernel_size=(3, 3), stride=(1, 1), padding=(1, 1))\n","  (6): ReLU(inplace=True)\n","  (7): Conv2d(128, 128, kernel_size=(3, 3), stride=(1, 1), padding=(1, 1))\n","  (8): ReLU(inplace=True)\n","  (9): MaxPool2d(kernel_size=2, stride=2, padding=0, dilation=1, ceil_mode=False)\n","  (10): Conv2d(128, 256, kernel_size=(3, 3), stride=(1, 1), padding=(1, 1))\n","  (11): ReLU(inplace=True)\n","  (12): Conv2d(256, 256, kernel_size=(3, 3), stride=(1, 1), padding=(1, 1))\n","  (13): ReLU(inplace=True)\n","  (14): Conv2d(256, 256, kernel_size=(3, 3), stride=(1, 1), padding=(1, 1))\n","  (15): ReLU(inplace=True)\n","  (16): MaxPool2d(kernel_size=2, stride=2, padding=0, dilation=1, ceil_mode=False)\n","  (17): Conv2d(256, 512, kernel_size=(3, 3), stride=(1, 1), padding=(1, 1))\n","  (18): ReLU(inplace=True)\n","  (19): Conv2d(512, 512, kernel_size=(3, 3), stride=(1, 1), padding=(1, 1))\n","  (20): ReLU(inplace=True)\n","  (21): Conv2d(512, 512, kernel_size=(3, 3), stride=(1, 1), padding=(1, 1))\n","  (22): ReLU(inplace=True)\n",")\n"]}]},{"cell_type":"code","source":["# Number of training epochs\n","num_iter = 1000\n","\n","# Set batch size, for number of generated samples per epoch\n","batch_size = 8\n","\n","# Set random seed\n","seed = 1234"],"metadata":{"id":"HN09lrVcPfHg"},"execution_count":null,"outputs":[]},{"cell_type":
…
n","netD_Adam_W_VGG16.apply(weights_init)\n","print(netD_Adam_W_VGG16)\n","optimizerD_Adam_W = optim.Adam(netD_Adam_W_VGG16.parameters(), lr=0.0002)\n","criterion = nn.MSELoss()"],"metadata":{"colab":{"base_uri":"https://localhost:8080/"},"id":"2M21XqJBcelL","executionInfo":{"status":"ok","timestamp":1669213549180,"user_tz":-60,"elapsed":4,"user":{"displayName":"Kieran Carrigg","userId":"16594930700941695113"}},"outputId":"24c5b6ba-dd55-42c6-c22b-1d5334b0fe3e"},"execution_count":null,"outputs":[{"output_type":"stream","name":"stdout","text":["Discriminator(\n","  (main): Sequential(\n","    (0): Conv2d(3, 64, kernel_size=(4, 4), stride=(2, 2), padding=(1, 1), bias=False)\n","    (1): LeakyReLU(negative_slope=0.2, inplace=True)\n","    (2): Conv2d(64, 128, kernel_size=(4, 4), stride=(2, 2), padding=(1, 1), bias=False)\n","    (3): BatchNorm2d(128, eps=1e-05, momentum=0.1, affine=True, track_running_stats=True)\n","    (4): LeakyReLU(negative_slope=0.2, inplace=True)\n","    (5): Conv2d(128, 256, kernel_size=(4, 4), stride=(2, 2), padding=(1, 1), bias=False)\n","    (6): BatchNorm2d(256, eps=1e-05, momentum=0.1, affine=True, track_running_stats=True)\n","    (7): LeakyReLU(negative_slope=0.2, inplace=True)\n","    (8): Conv2d(256, 512, kernel_size=(4, 4), stride=(2, 2), padding=(1, 1), bias=False)\n","    (9): BatchNorm2d(512, eps=1e-05, momentum=0.1, affine=True, track_running_stats=True)\n","    (10): LeakyReLU(negative_slope=0.2, inplace=True)\n","    (11): Conv2d(512, 512, kernel_size=(4, 4), stride=(1, 1), bias=False)\n","  )\n",")\n"]}]},{"cell_type":"code","source":["losses_adam_w_VGG16 = train(netD_Adam_W_VGG16, G, vgg16_model, num_iter, batch_size, img_size, seed, criterion, optimizerD_Adam_W)"],"metadata":{"colab":{"base_uri":"https://localhost:8080/"},"id":"B-HSbKb4cllX","executionInfo":{"status":"ok","timestamp":1669218525746,"user_tz":-60,"elapsed
…
